…
annels, out_channels, kernel_size            nn.Sigmoid(),            nn.MaxPool2d(2, 2),            nn.Conv2d(6, 16, 5),            nn.Sigmoid(),            nn.MaxPool2d(2, 2)        )                self.fc = nn.Sequential(            nn.Linear(16*4*4, 120),            nn.Sigmoid(),            nn.Linear(120, 84),            nn.Sigmoid(),            nn.Linear(84, 10)        )            def forward(self, img):        feature = self.conv(img)        output = self.fc(feature.view(img.shape[0], -1))        return output\n\n我们来查看一下网络结构\nnet = LeNet()print(net)\n\nLeNet(  (conv): Sequential(    (0): Conv2d(1, 6, kernel_size=(5, 5), stride=(1, 1))    (1): Sigmoid()    (2): MaxPool2d(kernel_size=2, stride=2, padding=0, dilation=1, ceil_mode=False)    (3): Conv2d(6, 16, kernel_size=(5, 5), stride=(1, 1))    (4): Sigmoid()    (5): MaxPool2d(kernel_size=2, stride=2, padding=0, dilation=1, ceil_mode=False)  )  (fc): Sequential(    (0): Linear(in_features=256, out_features=120, bias=True)    (1): Sigmoid()    (2): Linear(in_features=120, out_features=84, bias=True)    (3): Sigmoid()    (4): Linear(in_features=84, out_features=10, bias=True)  ))\n\n\n\n5.2 AlexNet这是一个计算机视觉史上划时代的模型，它首次证明了学习到的特征可以超越手工设计的特征，从而一举打破计算机视觉研究的前状。\n\nAlexNet 与 LeNet 设计理念十分相似，但也有显著的区别。例如，AlexNet 将 sigmoid 激活函数更换成了 ReLU 函数，其计算更简单，而且在不同的参数初始化方法下使模型更容易训练。AlexNet 添加了丢弃法来控制全连接层模型的复杂度，并引入了大量的图像增广，如翻转、裁剪等等手段扩大数据集来缓解过拟合的现象。\n来看看其网络结构吧：\nclass AlexNet(nn.Module):    def __init__(self):        super(AlexNet, self).__init__()   
…
n.Conv2d(384, 256, 3, 1, 1),            nn.ReLU(),            nn.MaxPool2d(3, 2)        )                self.fc = nn.Sequential(            nn.Linear(256*5*5, 4096),            nn.ReLU(),            nn.Dropout(0.5),            nn.Linear(4096, 4096),            nn.ReLU(),            nn.Dropout(0.5),            # 输出层。如果这里用的是ImageNet，那么类别数就是1000。            nn.Linear(4096, 1000)        )            def forward(self, img):        feature = self.conv(img)        output = self.fc(feature.view(img.shape[0], -1))        return output\n\nnet = AlexNet()print(net)\n\nAlexNet(  (conv): Sequential(    (0): Conv2d(1, 96, kernel_size=(11, 11), stride=(4, 4))    (1): ReLU()    (2): MaxPool2d(kernel_size=3, stride=2, padding=0, dilation=1, ceil_mode=False)    (3): Conv2d(96, 256, kernel_size=(5, 5), stride=(1, 1), padding=(2, 2))    (4): ReLU()    (5): MaxPool2d(kernel_size=3, stride=2, padding=0, dilation=1, ceil_mode=False)    (6): Conv2d(256, 384, kernel_size=(3, 3), stride=(1, 1), padding=(1, 1))    (7): ReLU()    (8): Conv2d(384, 384, kernel_size=(3, 3), stride=(1, 1), padding=(1, 1))    (9): ReLU()    (10): Conv2d(384, 256, kernel_size=(3, 3), stride=(1, 1), padding=(1, 1))    (11): ReLU()    (12): MaxPool2d(kernel_size=3, stride=2, padding=0, dilation=1, ceil_mode=False)  )  (fc): Sequential(    (0): Linear(in_features=6400, out_features=4096, bias=True)    (1): ReLU()    (2): Dropout(p=0.5, inplace=False)    (3): Linear(in_features=4096, out_features=4096, bias=True)    (4): ReLU()    (5): Dropout(p=0.5, inplace=False)    (6): Linear(in_features=4096, out_features=1000, bias=True)  ))\n\nAlexNet 虽然与 LeNet 结构类似，但是使用了更多的卷积层和更大的参数空间来拟合大规模数据集 ImageNet。它是浅层神经网络和深度神经网络的分界线。\n5.3 ResNet5.3.1 批量归一化来介绍批量归一化（batch normalization）层，它能让较深的神经网络训练起来更加容易。批量归一化并不是模型，因为后面的一些模型需要用上此概念，所以先介绍一下。\n有时我们会对输入数据做标准化处理：处理后的任意一个特征在数据集中所有样本的均值为 0，标准差为 1。标准化处理输入数据使得各个特征分布相近：这往往更容易训练出有效的模型。\n但是标准化处理不太能应付深度神经网络，训练中的模型参数的更新依然很容易让靠近输出层的输出剧烈变化。批量归一化就是为了应对这一挑战而诞
…
